models/autoencoder_model.pt (torch, 39032 bytes, 8 tensors)

encoder.0.weight f4 [64, 36]
-0.14397363 -0.056654554 0.0018062857 0.15212537 -0.115554035 0.052334525 0.08840293 0.13073033
0.03135975 -0.08793317 -0.054783806 0.039931223 0.06329429 0.14154914 -0.022819858 0.036936235
0.019657293 -0.003173247 0.07154135 -0.00095810066 -0.04073794 -0.0688351 -0.1630067 -0.11400181
-0.15956746 0.018494869 -0.14702529 -0.104388714 -0.07029188 0.02046458 -0.0041825837 0.11370466
-0.1217194 -0.20262294 -0.10779696 -0.13137537 0.094136275 0.06615592 0.20916511 0.097316645
0.091458105 0.082985334 0.19869025 -0.04409166 -0.01743439 0.021593694 0.023779375 0.11098645
0.045933742 0.11569242 0.102413215 0.13194023 0.102983266 -0.14239495 -0.061355054 -0.12296829
0.15001482 -0.15155117 -0.10511843 0.0056448197 0.035905506 -0.18631697 -0.029946152 0.06658077
-0.01810605 -0.041732274 0.016873533 0.16070494 -0.13264304 0.1553655 -0.20302565 -0.2165572
0.09902384 -0.12278287 0.10656152 0.20374396 -0.18904185 0.024942957 0.15210249 -0.024525318
-0.03889489 0.011793456 0.025526322 0.0092332745 0.2097963 0.21291572 -0.15531832 -0.068894476
0.0829391 0.22298396 -0.031024395 0.037424985 0.05356916 0.058566663 -0.13247414 -0.1032438
0.08551866 -0.102894254 -0.09119865 0.20903094 0.06599917 0.07780132 -0.23466033 -0.15702014
-0.07836931 0.17950039 0.08305864 0.030359585 -0.070140556 -0.113663316 0.016298547 0.16614485
0.08150713 0.11132069 -0.11513047 0.0514088 0.11216082 -0.06998382 0.21951795 0.08279624
0.11908303 0.12094216 0.14166707 0.09714555 0.2089283 0.05799655 0.08048337 0.1410263
0.06324429 -0.09526109 0.09637271 0.22656402 0.005376917 0.11139394 0.22134878 -0.05176656
0.21381782 -0.048055854 -0.005143885 -0.059908994 -0.18108808 -0.12151003 0.113406636 -0.14588974
0.014174554 -0.15557684 0.15356903 0.045557886 0.24998285 -0.07202853 -0.057989545 0.21966472
0.066709906 -0.02500257 0.11873486 -0.060674865 0.052498203 0.17698684 0.085604005 0.1252161
-0.032842778 0.10766865 0.02734359 0.19618139 -0.047190387 -0.054434083 0.07383347 0.1633609
0.09599846 0.07983295 0.15219575 -0.030059932 -0.058112133 0.070074804 -0.069050975 -0.010368627
-0.14996268 -0.082870945 -0.21445869 -0.12688945 -0.07955881 -0.13836351 0.17796443 -0.014966382
-0.05116007 -0.12972416 -0.08662052 0.013949023 -0.009353288 0.021068163 0.057883874 0.018126518
0.0027668932 -0.036225706 0.018928371 0.12270938 0.01625965 0.1703579 0.018737676 -0.09627127
0.12529045 0.07993837 0.008413255 0.24278353 0.14530429 0.18980043 0.0941902 -0.041234247
0.13863152 0.0345543 0.1498695 0.1651688 -0.071466155 -0.10887566 0.19835946 -0.11884837
0.018125301 -0.11285757 0.05609884 0.05157078 -0.14688781 0.056475718 0.01967996 0.03546252
0.06109862 0.05254345 -0.08582426 -0.09371887 0.067249626 -0.037596885 -0.014097794 -0.18855077
-0.11417862 -0.011260536 -0.025282588 0.05323933 0.0055916617 0.16081068 0.08765408 -0.01582572
0.13949674 -0.027532447 0.19622354 -0.19793162 -0.042966712 0.14641574 -0.1773417 -0.05115539
0.015389043 0.061612416 0.008138797 0.24525532 0.11331426 0.046009246 0.08159949 0.097319126
00000000: d36d 13be 9b0e 68bd e4c0 ec3a c1c6 1b3e
00000010: 98a7 ecbd ba5c 563d 980c b53d 2cde 053e
00000020: 1573 003d 4e16 b4bd fc64 60bd ec8e 233d
00000030: 70a0 813d 42f2 103e b6f0 babc 734a 173d
00000040: 5508 a13c 40f6 4fbb 4584 923d 0c29 7bba
00000050: d4dc 26bd 6bf9 8cbd 3aeb 26be c879 e9bd
00000060: a765 23be 8d82 973c cc8d 16be c0c9 d5bd
00000070: 30f5 8fbd 56a5 a73c 0e0e 89bb fddd e83d
00000080: 0548 f9bd 637c 4fbe a7c4 dcbd 4487 06be
00000090: 85ca c03d c17c 873d 612f 563e f34d c73d
000000a0: 634e bb3d 37f4 a93d 7575 4b3e 7599 34bd
000000b0: 91d2 8ebc 42e5 b03c f7cc c23c dd4c e33d
000000c0: 0525 3c3d 26f0 ec3d 05be d13d 571b 073e
000000d0: e4e8 d23d fbcf 11be 704f 7bbd ccd6 fbbd
000000e0: 7c9d 193e 3b30 1bbe 5548 d7bd 2ef8 b83b
000000f0: a711 133d e0c9 3ebe a251 f5bc 805b 883d
00000100: 2453 94bc 76ef 2abd 5d3a 8a3c d68f 243e
00000110: 94d3 07be 2218 1f3e f5e5 4fbe 2cc1 5dbe
00000120: 03cd ca3d 9675 fbbd ed3c da3d 42a2 503e
00000130: 3094 41be 2c55 cc3c c1c0 1b3e 52e9 c8bc
00000140: 4050 1fbd 5739 413c 941c d13c 2947 173c
00000150: d7d4 563e 9406 5a3e c40b 1fbe 8c18 8dbd
00000160: fadb a93d e855 643e df26 febc f14a 193d
00000170: 566b 5b3d 99e3 6f3d 4da7 07be 7c71 d3bd
00000180: 6824 af3d 39ba d2bd 5cc6 babd 350c 563e
00000190: 932a 873d 4c56 9f3d cc4a 70be e3c9 20be
000001a0: 1780 a0bd f3ce 373e a61a aa3d aab4 f83c
000001b0: daa5 8fbd 50c8 e8bd 8884 853c e021 2a3e
000001c0: 36ed a63d 1afc e33d 86c9 ebbd 0992 523d
000001d0: 92b4 e53d ad53 8fbd 50c9 603e 1391 a93d
000001e0: cee1 f33d 86b0 f73d 2c11 113e 3ff4 c63d
000001f0: 4df1 553e ca8d 6d3d 77d4 a43d 3369 103e
00000200: 3986 813d 3f18 c3bd 0e5f c53d 6600 683e
00000210: d930 b03b 8222 e43d 41a9 623e 2c09 54bd
00000220: 0ff3 5a3e 37d6 44bd 098e a8bb 2263 75bd
00000230: 276f 39be 40da f8bd bd41 e83d 1f64 15be
00000240: 633c 683c 894f 1fbe 3341 1d3e e89a 3a3d
00000250: 81fb 7f3e b283 93bd 7286 6dbd caef 603e
00000260: 349f 883d 31d2 ccbc 432b f33d 3586 78bd
00000270: 5b08 573d 0a3c 353e 2751 af3d a638 003e
00000280: 2686 06bd 6281 dc3d aaff df3c c6e3 483e
00000290: b54a 41bd 46f6 5ebd 0136 973d 1448 273e
000002a0: d79a c43d 757f a33d 34d9 1b3e 3f40 f6bc
000002b0: fd06 6ebd 6183 8f3d 996a 8dbd 2ce1 29bc
000002c0: d18f 19be 3eb8 a9bd 0f9b 5bbe 4fef 01be
000002d0: bbef a2bd 2aaf 0dbe 4f3c 363e 8e35 75bc
000002e0: 398d 51bd 69d6 04be 1966 b1bd 718a 643c
000002f0: 893e 19bc 2497 ac3c a417 6d3d 107e 943c
00000300: c454 353b 6861 14bd ac0f 9b3c 0e4f fb3d
00000310: f532 853c 4d72 2e3e c17f 993c df29 c5bd
00000320: 244c 003e bab6 a33d c0d7 093c 3f9c 783e
00000330: a6ca 143e 0b5b 423e cbe6 c03d 3ee5 28bd
00000340: 6cf5 0d3e cf88 0d3d 6477 193e 0322 293e
00000350: d95c 92bd 34fa debd be1e 4b3e c666 f3bd
00000360: 837b 943c df21 e7bd e6c7 653d e23b 533d
00000370: c269 16be 1553 673d de37 a13c 2641 113d
00000380: 8c42 7a3d cd37 573d a1c4 afbd aeef bfbd
00000390: 2cba 893d 31ff 19bd 6ffa 66bc 7413 41be
000003a0: 7bd6 e9bd 1c7e 38bc 6e1d cfbc 7c11 5a3d
000003b0: 423a b73b 8eab 243e fb83 b33d f1a4 81bc
000003c0: 3cd8 0e3e ba8b e1bc d3ee 483e 96ae 4abe
000003d0: ddfd 2fbd 02ee 153e 1099 35be 5088 51bd
000003e0: 5322 7c3c 4d5d 7c3d 9758 053c 3624 7b3e
000003f0: 4f11 e83d 3174 3c3d a21d a73d 404f c73d

encoder.0.bias f4 [64]
-0.115089335 0.02034343 0.18191326 -0.056313306 0.19520381 -0.004434931 0.12661316 0.14799102
0.079089284 0.18296675 0.003213522 0.19420941 0.052930847 -0.07419948 0.22314748 0.11809641
0.09402692 0.12307661 0.04374581 0.081970505 0.03754123 0.08930651 -0.15207952 0.15249443
-0.08163347 0.06526347 -0.033500247 0.080531515 0.082094185 0.12188684 0.018375883 -0.025643436
-0.007263907 -0.093310475 0.14904222 0.19172572 -0.058461644 0.038889974 0.15153491 0.01694478
0.18307152 -0.02891882 0.13911691 0.04983674 0.029254612 -0.09140801 -0.03297662 0.16873546
0.18889016 -0.004534645 0.112501234 0.09635151 0.12419142 0.18135391 0.15602896 0.025658425
0.14194068 0.029715942 -0.023574218 0.1980735 0.035331678 0.17131767 0.103046246 -0.0018463768
00000000: f5b3 ebbd 44a7 a63c 7847 3a3e c8a8 66bd
00000010: 82e3 473e e652 91bb e1a6 013e f58a 173e
00000020: 90f9 a13d a35b 3b3e f499 523b d5de 463e
00000030: 04ce 583d e6f5 97bd c680 643e 88dc f13d
00000040: 3091 c03d 970f fc3d ce2e 333d 27e0 a73d
00000050: d5c4 193d 55e6 b63d bcba 1bbe 8027 1c3e
00000060: 732f a7bd dba8 853d 8e37 09bd b5ed a43d
00000070: ff20 a83d cf9f f93d 0589 963c 2f12 d2bc
00000080: 1206 eebb 9019 bfbd 869e 183e bf53 443e
00000090: 7a75 6fbd 184b 1f3d f82b 1b3e c7cf 8a3c
000000a0: 1a77 3b3e 29e7 ecbc aa74 0e3e 9c21 4c3d
000000b0: 5ea7 ef3c 1f34 bbbd 7e12 07bd fdc8 2c3e
000000c0: 6c6c 413e 5c97 94bb 0c67 e63d f153 c53d
000000d0: 1258 fe3d d7b4 393e 0ec6 1f3e 9e31 d23c
000000e0: e658 113e d96e f33c b81e c1bc c8d3 4a3e
000000f0: f3b7 103d e66d 2f3e e909 d33d 2002 f2ba

encoder.2.weight f4 [32, 64]
0.12123342 0.12026735 -0.10386759 0.12083993 0.1161934 0.09838026 0.03784624 0.13886632
-0.08492236 -0.07925808 0.024345418 0.014935203 -0.0015008966 0.06544008 0.020915516 0.036644377
-0.1382628 0.039999675 0.1301874 -0.05354355 -0.18785216 0.048504263 -0.01584586 0.0899546
-0.07577514 -0.015503541 -0.011618387 -0.019917123 0.19183171 0.009837919 -0.12158821 0.053058136
-0.074258685 0.0039284434 -0.03687425 0.029056324 -0.008123702 0.045599137 -0.037235685 0.083814435
0.14386114 -0.029351665 0.16411899 -0.08258319 0.101739824 0.20065978 0.17111729 0.15133244
-0.0013436249 0.07659892 -0.074887656 0.1785755 -0.081294976 0.2014348 -0.040581502 -0.106941745
0.12661776 0.17514174 0.060249556 -0.026442168 -0.07941456 -0.009443646 0.035925392 0.10612664
-0.016973928 -0.0032945736 -0.04885821 0.05956883 -0.06628068 0.11920431 0.031230541 -0.022117402
-0.012026594 0.15610321 -0.016979728 0.0587737 -0.0001693305 -0.01036214 0.19052514 -0.08159498
0.019977866 0.016065761 -0.043888524 -0.16591536 -0.031429768 -0.06335088 0.16297834 -0.09773924
0.030574868 -0.027993128 0.070304066 0.066855334 -0.14036109 -0.0662494 0.13773575 -0.01898492
0.19159289 0.030264447 0.08922222 0.18963666 -0.049765013 0.035155524 0.02746757 -0.022342602
0.1370296 0.023845242 -0.032032114 0.07264822 0.16200058 0.042302854 0.11381029 -0.033853445
0.14419009 -0.041499116 0.10434805 0.11060552 0.0029139621 -0.050593566 0.12074497 0.04628995
0.11420919 0.12302421 -0.14256606 -0.07905845 0.16132088 0.18267466 0.16500433 0.19643852
-0.023824336 0.023592798 0.048079606 0.047179382 -0.040651478 -0.0797501 0.21066089 -0.028708119
0.004911192 0.027928656 0.09490082 0.22441033 -0.048485573 0.10544407 -0.02009578 0.16687799
0.06923441 -0.011207224 -0.004180871 0.0055784984 -0.14703403 -0.0060063014 -0.02493963 0.11831566
-0.03759593 0.1483279 -0.039667103 -0.0005692401 0.2368347 0.19551867 0.12676626 0.034244176
0.054697096 -0.059119876 0.078532 -0.057701442 0.13558148 -0.07604327 0.061447263 0.06865782
-0.040006004 -0.200615 0.0020159306 -0.07651032 0.06885294 0.22350855 0.12373761 0.12490657
-0.14016406 0.18610798 0.07077344 -0.09328053 -0.14462464 0.11010366 -0.12601064 0.09154512
0.1878247 0.051463958 -0.14934178 -0.1613684 -0.069097705 0.15013222 0.20630033 0.11281544
0.00096552644 0.12377005 0.17287067 0.05111134 -0.009084554 -0.0059381053 0.05547166 0.13983779
0.087091975 0.014679636 -0.009502147 -0.1328667 0.1439083 0.11949785 0.07865255 0.05870341
-0.032881062 -0.017073885 0.05467089 -0.12502009 -0.044106245 0.089290775 -0.06997802 -0.0506513
-0.005720965 0.075298004 0.08475752 0.084229045 -0.041643526 0.07025329 -0.0046374453 0.05436829
0.0606668 0.09291147 -0.0037465573 0.11965609 -0.025157757 0.0340305 0.1489331 0.01869885
0.10825236 0.20266478 -0.015931433 -0.07076725 0.17502508 0.104313314 -0.013956478 0.05842031
-0.029784674 -0.07984091 -0.023173688 -0.028731348 0.031648405 0.10377171 0.028448517 -0.047878508
-0.026115876 0.1783233 -0.021094723 -0.027703345 0.057981238 0.14168066 0.0064977817 0.14279354
00000000: 3a49 f83d ba4e f63d 88b8 d4bd ed7a f73d
00000010: cef6 ed3d 977b c93d a904 1b3d f932 0e3e
00000020: c6eb adbd 0f52 a2bd 0b70 c73c c8b2 743c
00000030: bcb9 c4ba 7305 863d 0457 ab3c 6a18 163d
00000040: c394 0dbe b3d6 233d d94f 053e 7b50 5bbd
00000050: 515c 40be 68ac 463d 2dcf 81bc 1e3a b83d
00000060: ff2f 9bbd 9002 7ebc 0c5b 3ebc 3c29 a3bc
00000070: 886f 443e 392f 213c 3d03 f9bd 7d53 593d
00000080: f014 98bd 2cba 803b 7409 17bd 8707 ee3c
00000090: 4719 05bc 29c6 3a3d 7284 18bd e7a6 ab3d
000000a0: 5650 133e e772 f0bc cf0e 283e 6021 a9bd
000000b0: f85c d03d c279 4d3e 5f39 2f3e e4f6 1a3e
000000c0: 921c b0ba e5df 9c3d b35e 99bd 7fdc 363e
000000d0: fb7d a6bd ed44 4e3e ca38 26bd 4604 dbbd
000000e0: 16a8 013e 5b58 333e 3dc8 763d 3f9d d8bc
000000f0: 1aa4 a2bd 86b9 1abc 8126 133d ed58 d93d
00000100: e80c 8bbc c6e9 57bb 8c1f 48bd 72fe 733d
00000110: 2abe 87bd 6421 f43d 31d7 ff3c 8e2f b5bc
00000120: 310b 45bc 85d9 1f3e 1219 8bbc b1bc 703d
00000130: 4f8e 31b9 f7c5 29bc 0619 433e 451b a7bd
00000140: 9fa8 a33c 589c 833c 74c4 33bd b7e5 29be
00000150: 80bc 00bd 1bbe 81bd cbe3 263e 832b c8bd
00000160: 2578 fa3c d851 e5bc 94fb 8f3d 73eb 883d
00000170: d1ba 0fbe c4ad 87bd 9a0a 0d3e 4386 9bbc
00000180: ed30 443e 25ed f73c 24ba b63d 1d30 423e
00000190: 66d6 4bbd 3dff 0f3d ab03 e13c d507 b7bc
000001a0: 7d51 0c3e 1957 c33c 1b34 03bd 97c8 943d
000001b0: 7be3 253e c245 2d3d 5f15 e93d e9a9 0abd
000001c0: 91a6 133e fafa 29bd 6eb4 d53d 2685 e23d
000001d0: 2cf8 3e3b 333b 4fbd 2449 f73d 889a 3d3d
000001e0: 82e6 e93d 1ef4 fb3d d6fc 11be 66e9 a1bd
000001f0: 4d31 253e 110f 3b3e e5f6 283e 2e27 493e
00000200: 412b c3bc af45 c13c 1fef 443d 2b3f 413d
00000210: 2a82 26bd 0554 a3bd 7db7 573e 4a2d ebbc
00000220: 11ee a03b a3ca e43c 5c5b c23d d2cb 653e
00000230: cf98 46bd 10f3 d73d e89f a4bc 10e2 2a3e
00000240: c5ca 8d3d 819e 37bc b0ff 88bb d6cb b63b
00000250: 1790 16be 82d0 c4bb 324e ccbc 7b4f f23d
00000260: 31fe 19bd 45e3 173e f979 22bd 0e39 15ba
00000270: cc84 723e 0c36 483e 04cf 013e 9f43 0c3d
00000280: 100a 603d af27 72bd 63d5 a03d 5958 6cbd
00000290: dfd5 0a3e 93bc 9bbd 20b0 7b3d 799c 8c3d
000002a0: 56dd 23bd 056e 4dbe b41d 043b 71b1 9cbd
000002b0: c502 8d3d 6ddf 643e 256a fd3d 04cf ff3d
000002c0: 2b87 0fbe 1793 3e3e aaf1 903d dd09 bfbd
000002d0: 7b18 14be 077e e13d ef08 01be 027c bb3d
000002e0: 1e55 403e dfcb 523d 0ded 18be c23d 25be
000002f0: 1983 8dbd 43bc 193e 6540 533e c80b e73d
00000300: 621b 7d3a 277b fd3d 0205 313e 205a 513d
00000310: 62d7 14bc 7094 c2bb 4036 633d a331 0f3e
00000320: 475d b23d db82 703c e5ae 1bbc 350e 08be
00000330: b35c 133e 4abb f43d 9714 a13d fd72 703d
00000340: 4bae 06bd 88de 8bbc 95ee 5f3d 4405 00be
00000350: c0a8 34bd 15de b63d a350 8fbd bd77 4fbd
00000360: ef76 bbbb d735 9a3d 5a95 ad3d 4780 ac3d
00000370: 6792 2abd f5e0 8f3d b6f5 97bb 49b1 5e3d
00000380: c07d 783d 5e48 be3d cd88 75bb 410e f53d
00000390: a417 cebc 9163 0b3d eb81 183e 552e 993c
000003a0: 6ab3 dd3d 5b87 4f3e a382 82bc 6cee 90bd
000003b0: c639 333e 38a2 d53d b6a9 64bc 234a 6f3d
000003c0: fdfe f3bc a283 a3bd bfd6 bdbc 015e ebbc
000003d0: c2a1 013d 4386 d43d dd0c e93c 411c 44bd
000003e0: f6f0 d5bc 629a 363e d7ce acbc 20f2 e2bc
000003f0: bc7d 6d3d bc14 113e 58eb d43b 7838 123e

encoder.2.bias f4 [32]
0.026233444 -0.010029307 -0.05347857 0.13896939 0.044996124 -0.073566616 0.15396966 0.1503927
0.010561046 -0.0044052983 -0.02594429 0.12526645 0.08422225 -0.019299706 -0.08454135 0.06501007
0.082299806 -0.13127784 0.074928775 0.09462247 -0.0368725 0.06803807 0.059106223 0.108661406
0.050420363 0.13556641 -0.046543337 0.04650125 0.1104008 0.07633218 -0.0062117428 -0.028000878
00000000: 85e7 d63c f651 24bc 580c 5bbd fe4d 0e3e
00000010: db4d 383d 18aa 96bd 39aa 1d3e 8b00 1a3e
00000020: 3d08 2d3c 525a 90bb 1f89 d4bc d945 003e
00000030: b77c ac3d 6b1a 9ebc 0424 adbd 0024 853d
00000040: cd8c a83d b36d 06be 4274 993d 6dc9 c13d
00000050: 9e07 17bd 8b57 8b3d 5e19 723d df89 de3d
00000060: 9585 4e3d ecd1 0a3e 3aa4 3ebd 1878 3e3d
00000070: d119 e23d 0c54 9c3d e08b cbbb 1962 e5bc

decoder.1.weight f4 [64, 32]
-0.15425314 -0.041208457 0.11181966 0.08041869 0.059425265 -0.05392251 -0.09405009 -0.10088768
0.16027367 0.03535276 0.08839332 0.046866678 -0.111795194 0.100606054 -0.10923239 0.21066263
0.007013966 0.16224596 -0.14647922 0.1121206 -0.100529544 0.13720872 -0.021746734 0.1034953
-0.052823044 -0.03409303 0.043473214 -0.17524754 -0.03978693 -0.0660848 0.027574128 -0.13071097
0.15149248 -0.031343184 0.014065376 0.00061591424 -0.05756 0.008624095 0.024374038 0.20689586
-0.09394214 0.042334713 -0.083334796 0.24222548 -0.021558538 0.08189415 0.09401202 -0.04794269
0.044586193 -0.07119377 -0.011149524 -0.11705114 0.18630655 0.07940418 -0.104558244 -0.07335029
0.22421296 -0.07037194 0.12161915 -0.083179995 0.15720892 0.26334298 0.2280835 0.115293466
-0.11740962 0.10051091 -0.14117584 -0.07912415 0.09283535 -0.008389473 0.13916789 0.11808224
0.10248728 -0.006441027 -0.042926297 -0.009585738 -0.17269188 0.03305967 -0.00016388297 -0.14949456
-0.09888477 -0.0717734 -0.05317729 -0.08667404 0.15794389 0.08587657 -0.08300335 -0.069646426
0.04171215 -0.13022059 -0.06464697 -0.019127637 0.0843976 -0.053741 0.0067301393 -0.10488821
-0.048694514 -0.054151386 -0.08826246 0.13296753 0.028717402 0.18552782 -0.11429326 0.18022326
-0.030510958 -0.17182083 0.10614804 0.24411128 0.034539323 -0.15747257 -0.12076644 0.17846115
0.06520658 -0.11925155 -0.021493295 -0.08803842 -0.16975634 0.10152657 0.09118067 -0.08716914
-0.1691795 0.05446384 -0.1587538 0.09899773 0.032253236 -0.109888144 0.08505119 0.18377572
-0.09440852 0.16276132 -0.093429595 -0.14705162 0.11743729 -0.16888158 -0.14541428 0.15103386
-0.056327663 0.06289728 -0.10719197 -0.10488898 -0.07266782 -0.09966887 -0.11387111 0.050559208
-0.096164316 -0.11845418 0.009071201 0.12327586 -0.12972158 -0.07520711 0.075494036 -0.018196538
-0.16836514 -0.1258981 -0.11541891 -0.021764204 -0.008675277 0.16237433 0.046530247 0.072380364
0.19883057 0.15375888 0.14821081 0.19744858 -0.04877164 0.15538727 0.035984326 0.078881055
-0.1376282 -0.05596657 0.2640103 -0.08393341 -0.037446927 0.07783097 0.027750889 0.16857639
0.035988294 0.1259667 0.033434004 0.2579517 -0.11310044 -0.05736003 0.23331805 0.20260489
-0.11350255 -0.019379763 0.22364865 -0.20560615 -0.00720557 -0.049383517 -0.20702352 -0.08348858
0.08739884 -0.14162534 0.15248021 -0.028198019 0.176099 0.14275466 0.25980914 -0.11671467
0.050139546 0.026062325 -0.23388521 -0.15189989 0.005660338 0.13051012 0.023872375 -0.1828507
0.21149431 0.126154 -0.06805098 -0.008071508 0.24219872 0.11430482 -0.16083173 -0.005363759
-0.1978436 0.15024395 -0.10679838 0.20635942 0.008739778 0.037266146 0.08682879 0.022752792
0.10617444 0.08859292 0.1638333 -0.11386717 0.056151576 -0.049798355 0.12870899 -0.11271554
-0.012110981 0.1190722 0.13026871 -0.12416665 0.01637338 -0.103589326 -0.09344277 -0.037266646
-0.09552396 0.13257553 -0.1256018 -0.08196135 -0.13923857 0.06192695 0.10264526 0.109957784
-0.11843409 0.022212958 -0.16589592 0.063771285 0.070910856 0.13948649 0.1518711 -0.1223131
00000000: 89f4 1dbe 33ca 28bd b501 e53d 8eb2 a43d
00000010: e867 733d dadd 5cbd 559d c0bd 339e cebd
00000020: c81e 243e 0ece 103d 8f07 b53d 46f7 3f3d
00000030: e1f4 e4bd 8c0a ce3d 3bb5 dfbd f2b7 573e
00000040: 69d5 e53b ce23 263e a6fe 15be 7c9f e53d
00000050: 6fe2 cdbd 7180 0c3e 3526 b2bc 58f5 d33d
00000060: fa5c 58bd 22a5 0bbd f810 323d 1774 33be
00000070: 9ff7 22bd 7857 87bd 23e3 e13c 19d9 05be
00000080: d820 1b3e b661 00bd 7672 663c 4e75 213a
00000090: 09c4 6bbd 134c 0d3c 10ac c73c 82dc 533e
000000a0: bd64 c0bd 2a67 2d3d 6fab aabd f509 783e
000000b0: 889b b0bc 1fb8 a73d 6089 c03d 8e5f 44bd
000000c0: 03a0 363d 0ace 91bd 7eac 36bc 82b8 efbd
000000d0: 25c7 3e3e a99e a23d a222 d6bd ad38 96bd
000000e0: 1598 653e 2a1f 90bd 7613 f93d 465a aabd
000000f0: 60fb 203e e4d4 863e b98e 693e fb1e ec3d
00000100: 7474 f0bd aad8 cd3d 6690 10be d80b a2bd
00000110: 7620 be3d 0074 09bc 0782 0e3e 1ad5 f13d
00000120: dae4 d13d 400f d3bb 7cd3 2fbd 800d 1dbc
00000130: 24d6 30be 9469 073d 00d8 2bb9 1a15 19be
00000140: 1984 cabd effd 92bd 6ed0 59bd 2982 b1bd
00000150: 0bbc 213e 0ee0 af3d a9fd a9bd c9a2 8ebd
00000160: 5cda 2a3d 8c58 05be a165 84bd 90b1 9cbc
00000170: a6d8 ac3d 861f 5cbd 8088 dc3b a1cf d6bd
00000180: e673 47bd d8cd 5dbd f3c2 b4bd a428 083e
00000190: c240 eb3c 01fb 3d3e 9612 eabd 728c 383e
000001a0: 1ef2 f9bc cdf1 2fbe 2564 d93d 4ff8 793e
000001b0: 1b79 0d3d 7d40 21be 6554 f7bd 85be 363e
000001c0: 078b 853d 283a f4bd b512 b0bc 7d4d b4bd
000001d0: 9bd4 2dbe 2aed cf3d eebc ba3d bc85 b2bd
000001e0: 643d 2dbe 7a15 5f3d 5b90 22be 52bf ca3d
000001f0: f81b 043d 090d e1bd 512f ae3d b42f 3c3e
00000200: 4159 c1bd e7aa 263e 0458 bfbd b394 16be
00000210: f682 f03d 4bef 2cbe 7be7 14be 9fa8 1a3e
00000220: d6b7 66bd 4ad0 803d 7787 dbbd 09d0 d6bd
00000230: ded2 94bd 311f ccbd 4235 e9bd 2c17 4f3d
00000240: ccf1 c4bd 1b98 f2bd 609f 143c 0e78 fc3d
00000250: bcd5 04be 2f06 9abd 9e9c 9a3d e810 95bc
00000260: e967 2cbe 6eeb 00be c060 ecbd d84a b2bc
00000270: c022 0ebc 7545 263e 8096 3e3d 283c 943d
00000280: 3e9a 4b3e f872 1d3e 93c4 173e f62f 4a3e
00000290: c5c4 47bd d71d 1f3e 4d64 133d 648c a13d
000002a0: 68ee 0cbe 343d 65bd 5c2c 873e 48e5 abbd
000002b0: f361 19bd d865 9f3d d555 e33c 4a9f 2c3e
000002c0: 7668 133d 6afd 003e 18f2 083d 3f12 843e
000002d0: 34a1 e7bd 5af2 6abd edea 6e3e a877 4f3e
000002e0: 0674 e8bd 4fc2 9ebc 2704 653e 6b8a 52be
000002f0: b41c ecbb 5f46 4abd f9fd 53be 10fc aabd
00000300: 2afe b23d 3c06 11be c623 1c3e 88ff e6bc
00000310: 4c53 343e 472e 123e b405 853e 1a08 efbd
00000320: 205f 4d3d a880 d53c 9b7f 6fbe a58b 1bbe
00000330: 5b7a b93b 72a4 053e 0090 c33c 373d 3bbe
00000340: f791 583e 842e 013e 505e 8bbd 5c3e 04bc
00000350: f102 783e a518 ea3d 13b1 24be 79c2 afbb
00000360: 8397 4abe 8dd9 193e 1cb9 dabd e24f 533e
00000370: 4931 0f3c 63a4 183d 4bd3 b13d 1064 ba3c
00000380: fc71 d93d 3470 b53d ebc3 273e 3133 e9bd
00000390: 32ff 653d 5cf9 4bbd 4acc 033e 68d7 e6bd
000003a0: 236d 46bc 20dc f33d 2965 053e 164b febd
000003b0: 7721 863c a426 d4bd ec5e bfbd e9a4 18bd
000003c0: 11a2 c3bd e1c1 073e c29d 00be 5adb a7bd
000003d0: 8e94 0ebe 1da7 7d3d ae37 d23d 8c31 e13d
000003e0: 928d f2bd f3f7 b53c 9fe0 29be 859a 823d
000003f0: b639 913d 8cd5 0e3e 1984 1b3e 4a7f fabd

decoder.1.bias f4 [64]
0.10080908 0.11993234 -0.15524176 -0.121576466 -0.07915346 0.09724515 -0.008817068 -0.14187522
0.03721827 -0.12049455 0.013050105 -0.06314443 -0.025967486 0.081602365 0.103227325 0.19211297
0.20007452 0.030232053 0.114961565 0.1292108 0.103060395 0.017780378 -0.1524728 -0.14595765
-0.05150932 -0.09765017 0.16108203 -0.034871787 -0.055591352 -0.14488508 0.032876667 0.21079315
-0.027649296 0.084391475 0.0029472634 -0.10544819 -0.10559146 0.066710815 0.12524238 0.09642429
0.049093224 0.027666626 -0.16593719 -0.09317151 0.060181826 0.044311747 0.11940773 0.005699587
-0.10011918 0.033089973 0.12880585 -0.04749921 0.08812574 0.071214 0.18192345 0.1605281
0.057431616 0.10443918 0.0397081 0.08348547 -0.09363249 0.1633107 -0.07716248 -0.080025956
00000000: fe74 ce3d 169f f53d b2f7 1ebe 15fd f8bd
00000010: 361b a2bd 7728 c73d 7775 10bc bd47 11be
00000020: 2f72 183d d9c5 f6bd 1cd0 553c de51 81bd
00000030: c4b9 d4bc 241f a73d d968 d33d 43b9 443e
00000040: 56e0 4c3e 36a9 f73c f870 eb3d d64f 043e
00000050: 5411 d33d 28a8 913c d421 1cbe ec75 15be
00000060: 70fb 52bd d0fc c7bd b0f2 243e b8d5 0ebd
00000070: c2b3 63bd c15c 14be afa9 063d 29da 573e
00000080: c780 e2bc 70d5 ac3d e026 413b 38f5 d7bd
00000090: 5640 d8bd ae9f 883d 8a3f 003e 197a c53d
000000a0: fa15 493d 1fa5 e23c 70eb 29be b4d0 bebd
000000b0: 3881 763d 3c80 353d 0a8c f43d 9ac3 ba3b
000000c0: 490b cdbd 5a89 073d aee5 033e 888e 42bd
000000d0: 457b b43d a5d8 913d 244a 3a3e 7a61 243e
000000e0: 6a3d 6b3d 35e4 d53d f6a4 223d 6efa aa3d
000000f0: 64c2 bfbd ec3a 273e 5d07 9ebd a6e4 a3bd

decoder.3.weight f4 [36, 64]
-0.06841094 0.17025673 -0.03171757 0.025561731 0.09153837 -0.08025482 0.031562343 0.124107815
2.8009876e-05 0.124050304 0.0435507 -0.13703343 -0.09880455 -0.041235656 -0.17442767 0.04629282
-0.061954442 0.13332388 -0.02911741 -0.06438837 -0.006989319 -0.06470844 -0.050293922 0.089656495
-0.036057204 0.078221396 0.009244072 0.02320095 -0.11214431 0.044281103 0.0015482871 0.033763327
0.006515979 -0.097895175 0.09920764 -0.109249786 -0.024281349 0.05344849 -0.13820347 0.026157988
0.065853134 -0.10747325 -0.14263807 -0.073289454 -0.19802262 0.015538749 -0.06505065 -0.07354638
0.06897369 -0.06875193 -0.05251053 0.035986427 -0.053125866 0.051042736 0.038753703 0.23316076
-0.06046666 0.027946895 0.04368771 0.06348532 0.02894774 -0.17859717 0.08024713 0.16502771
0.027905313 0.13074283 0.07290198 -0.07940372 0.091644675 0.07024864 -0.046769515 -0.07325077
-0.10010804 -0.045418832 0.09910155 -0.06986644 0.19988486 -0.01655194 -0.10542666 -0.037353158
0.04871015 -0.026195802 0.08964767 -0.13377468 -0.020316675 -0.121510506 -0.09329535 -0.011384338
-0.04206997 0.018236864 0.0010503486 -0.08013443 0.12279305 0.02596673 0.043326583 0.035829812
0.14702713 -0.063457265 -0.0439341 -0.06893031 0.082083955 -0.024128702 -0.087026075 -0.061317183
0.08624274 -0.09462566 -0.15794325 0.1752741 0.0077940347 0.094251096 -0.06182875 0.034294233
-0.11281477 -0.03179115 -0.04436813 -0.10665175 -0.022465022 -0.023711016 -0.12851588 0.041299906
-0.11427265 -0.025189975 0.09704578 -0.092765264 0.072959945 0.09330656 -0.12272926 0.017861787
-0.01593389 0.23615392 0.017611086 0.047691036 -0.05206254 0.024491051 0.06594603 -0.07557188
0.04950667 -0.033283856 0.089332074 -0.022204433 -0.036936246 -0.031771775 -0.03366762 -0.054674458
-0.056651834 0.020461934 0.016002713 0.005845134 0.06203586 -0.14277872 0.11678626 0.07934072
0.024485439 -0.08240465 -0.013041433 0.11510678 0.093700126 -0.12473797 -0.17125948 0.04967957
0.023090916 0.008398765 0.14660263 0.074218646 0.024969181 -0.042531632 -0.011107522 0.1057813
-0.0777496 0.08316297 -0.026199495 0.17548618 -0.12819354 0.012970185 -0.14778373 0.055205166
0.064636976 -0.015240565 0.10587915 0.081336126 0.0060206293 -0.14228363 0.013882596 0.03725498
-0.022950744 0.17854458 0.091025986 0.18481582 -0.009652495 -0.12620623 0.2335018 0.09719859
-0.014073563 0.009463841 0.10208748 -0.10137168 -0.042532876 -0.058955472 -0.07584172 0.018073594
0.03569967 0.015620552 -0.022517042 -0.0037781717 -0.009071487 -0.012206777 0.02537666 0.063396186
-0.096350364 0.043196455 -0.0103011085 -0.1819255 -0.16320316 -0.006021933 -0.024220854 -0.073589206
-0.072409555 0.050686665 0.001023424 -0.08348707 0.09107959 0.07610037 -0.08840638 -0.046960335
-0.024244329 -0.15951677 -0.1787529 -0.033322036 0.07311065 -0.12134511 -0.09988022 -0.17819585
-0.18219264 -0.1754609 0.050512064 -0.16444899 -0.10801291 -0.10535958 -0.078676715 -0.14448284
0.04673502 -0.035657212 -0.07226137 -0.067432284 -0.11761063 0.060697034 -0.10474032 -0.2105174
-0.053506453 -0.14915806 -0.042715386 0.0340126 -0.11163843 -0.115071245 -0.11717659 0.073775165
00000000: 091b 8cbd c857 2e3e 48ea 01bd d666 d13c
00000010: 7878 bb3d a45c a4bd 8447 013d 3d2c fe3d
00000020: c0f6 ea37 160e fe3d 3862 323d 7e52 0cbe
00000030: 0a5a cabd b8e6 28bd 2b9d 32be 8a9d 3d3d
00000040: f1c3 7dbd 0e86 083e a287 eebc 0dde 83bd
00000050: a806 e5bb dc85 84bd 0001 4ebd d39d b73d
00000060: b8b0 13bd 8a32 a03d 7374 173c eb0f be3c
00000070: eaab e5bd 1a60 353d e5ef ca3a 6a4b 0a3d
00000080: fe83 d53b 447d c8bd 602d cb3d 5abe dfbd
00000090: aee9 c6bc ceec 5a3d 3685 0dbe 4749 d63c
000000a0: 02de 863d ef1a dcbd b70f 12be c818 96bd
000000b0: 71c6 4abe 3d96 7e3c 4639 85bd 7c9f 96bd
000000c0: 1442 8d3d d0cd 8cbd 4815 57bd 8166 133d
000000d0: 829a 59bd 3012 513d 34bc 1e3d b2c1 6e3e
000000e0: e3ab 77bd e3f0 e43c e2f1 323d 9704 823d
000000f0: d023 ed3c 2de2 36be 9b58 a43d 06fd 283e
00000100: af99 e43c 73e1 053e a24d 953d 6b9e a2bd
00000110: 34b0 bb3d 85de 8f3d 6491 3fbd 8004 96bd
00000120: 7205 cdbd 1909 3abd c1f5 ca3d 2316 8fbd
00000130: 9eae 4c3e ef97 87bc efe9 d7bd a0ff 18bd
00000140: 4b84 473d 9498 d6bc 3399 b73d 3bfc 08be
00000150: 286f a6bc 80da f8bd a211 bfbd 6085 3abc
00000160: 9051 2cbd 7a65 953c daab 893a 851d a4bd
00000170: ec7a fb3d 2eb8 d43c 3777 313d 48c2 123d
00000180: 488e 163e e2f5 81bd 3ef4 33bd 562b 8dbd
00000190: a21b a83d 8ea9 c5bc ba3a b2bd ba27 7bbd
000001a0: 09a0 b03d 19cb c1bd e0bb 21be 0e7b 333e
000001b0: 1a65 ff3b b806 c13d 2540 7dbd 1c78 0c3d
000001c0: 6e0b e7bd 7037 02bd 5bbb 35bd 3c6c dabd
000001d0: 9108 b8bc 9b3d c2bc ab99 03be 172a 293d
000001e0: c707 eabd 355b cebc f0bf c63d b7fb bdbd
000001f0: 066c 953d 8217 bf3d 7a59 fbbd e252 923c
00000200: ca87 82bc 55d2 713e 2045 903c ad57 433d
00000210: 883f 55bd 75a1 c83c b60e 873d 6ec5 9abd
00000220: 82c7 4a3d a754 08bd bcf3 b63d 12e6 b5bc
00000230: 764a 17bd 1f23 02bd 0fe7 09bd 53f2 5fbd
00000240: c10b 68bd c99f a73c 1f18 833c 8a88 bf3b
00000250: 5019 7e3d 9634 12be a22d ef3d 637d a23d
00000260: b095 c83c c5c3 a8bd bcab 55bc 1abd eb3d
00000270: dae5 bf3d 9f76 ffbd a55e 2fbe ce7c 4b3d
00000280: 2929 bd3c f99a 093c 001f 163e f2ff 973d
00000290: 2b8c cc3c a635 2ebd 53fc 35bc dea3 d83d
000002a0: 2f3b 9fbd 5951 aa3d 53a0 d6bc a6b2 333e
000002b0: 2b45 03be e680 543c 9e54 17be d01e 623d
000002c0: 6460 843d 90b3 79bc 2bd7 d83d 8e93 a63d
000002d0: b348 c53b cdb2 11be d473 633c ae98 183d
000002e0: 3303 bcbc 64d4 363e d56b ba3d 5c40 3d3e
000002f0: 8025 1ebc 353c 01be 191b 6f3e 0e10 c73d
00000300: cd94 66bc 3a0e 1b3c 3e13 d13d f59b cfbd
00000310: f436 2ebd 4b7b 71bd e752 9bbd 130f 943c
00000320: d139 123d 58ed 7f3c a975 b8bc 349b 77bb
00000330: 93a0 14bc effe 47bc b7e2 cf3c dcd5 813d
00000340: 5753 c5bd c4ee 303d fbc5 28bc ae4a 3abe
00000350: bb1e 27be a353 c5bb d06a c6bc f0b5 96bd
00000360: 764b 94bd d29c 4f3d 6924 863a 45fb aabd
00000370: f087 ba3d 83da 9b3d 670e b5bd 7b59 40bd
00000380: 0b9c c6bc 5d58 23be 000b 37be b07c 08bd
00000390: 09bb 953d c983 f8bd 008e ccbd f978 36be
000003a0: b590 3abe 06ac 33be bde5 4e3d 5165 28be
000003b0: df35 ddbd c3c6 d7bd 4221 a1bd 4ff3 13be
000003c0: 386d 3f3d 4c0d 12bd c5fd 93bd f019 8abd
000003d0: d8dd f0bd 749d 783d 1882 d6bd e091 57be
000003e0: 9529 5bbd e4bc 18be 54f6 2ebd cc50 0b3d
000003f0: b0a2 e4bd 79aa ebbd 48fa efbd 6f17 973d

decoder.3.bias f4 [36]
0.07034499 -0.10085499 -0.044845995 -0.13855588 0.041861914 -0.15921989 -0.11727105 -0.1270285
0.077315226 -0.03251632 0.12056684 -0.08818291 -0.02974179 -0.018403402 -0.11373809 -0.13251005
0.07688223 -0.025954204 -0.06856357 -0.021979485 -0.030936666 -0.005343041 -0.010642975 0.010181034
0.0091451155 -0.09415774 -0.10168536 -0.037961423 0.030785685 0.04218945 -0.06581134 -0.13606632
-0.07134831 0.015715681 -0.021153126 0.048556063
00000000: 0911 903d 108d cebd 6fb0 37bd 98e1 0dbe
00000010: 6677 2b3d 8a0a 23be ce2b f0bd c213 02be
00000020: 7257 9e3d d52f 05bd bfeb f63d 3e99 b4bd
00000030: 0ea5 f3bc bbc2 96bc 84ef e8bd b7b0 07be
00000040: 6e74 9d3d e99d d4bc 0f6b 8cbd 520e b4bc
00000050: e46e fdbc ad14 afbb df5f 2ebc 5ace 263c
00000060: 65d5 153c c6d5 c0bd 6a40 d0bd 707d 1bbd
00000070: 4332 fc3c d8ce 2c3d 19c8 86bd f854 0bbe
00000080: 101f 92bd 2cbe 803c 5249 adbc b9e2 463d
